…
2025-12-10 13:03:11.068444: I tensorflow/core/common_runtime/gpu/gpu_device.cc:1616] Created device /job:localhost/replica:0/task:0/device:GPU:0 with 9558 MB memory:  -> device: 0, name: NVIDIA GeForce RTX 4070, pci bus id: 0000:06:00.0, compute capability: 8.9
Model: "model_2"
__________________________________________________________________________________________________
 Layer (type)                   Output Shape         Param #     Connected to
==================================================================================================
 input_1 (InputLayer)           [(None, 2048)]       0           []

 input_2 (InputLayer)           [(None, 2048)]       0           []

 dense (Dense)                  (None, 2048)         4196352     ['input_1[0][0]']

 dense_1 (Dense)                (None, 2048)         4196352     ['input_2[0][0]']

 batch_normalization (BatchNorm  (None, 2048)        8192        ['dense[0][0]']
 alization)

 batch_normalization_1 (BatchNo  (None, 2048)        8192        ['dense_1[0][0]']
 rmalization)

 dropout (Dropout)              (None, 2048)         0           ['batch_normalization[0][0]']

 dropout_1 (Dropout)            (None, 2048)         0           ['batch_normalization_1[0][0]']

 tf.nn.silu (TFOpLambda)        (None, 2048)         0           ['dropout[0][0]']

 tf.nn.silu_1 (TFOpLambda)      (None, 2048)         0           ['dropout_1[0][0]']

 concatenate (Concatenate)      (None, 4096)         0           ['tf.nn.silu[0][0]',
                                                                  'tf.nn.silu_1[0][0]']

 dense_2 (Dense)                (None, 1024)         4195328     ['concatenate[0][0]']

 batch_normalization_2 (BatchNo  (None, 1024)        4096        ['dense_2[0][0]']
 rmalization)

 dropout_2 (Dropout)            (None, 1024)         0           ['batch_normalization_2[0][0]']

 tf.nn.silu_2 (TFOpLambda)      (None, 1024)         0           ['dropout_2[0][0]']

 dense_3 (Dense)                (None, 1)            1025        ['tf.nn.silu_2[0][0]']

==================================================================================================
Total params: 12,609,537
Trainable params: 12,599,297
Non-trainable params: 10,240
__________________________________________________________________________________________________
2025-12-10 13:03:13.874991: I tensorflow/stream_executor/cuda/cuda_blas.cc:1614] TensorFloat-32 will be used for the matrix multiplication. This will only be logged once.
…
f1micro is 0.6079664570230608
================check Overlapping========================
number of overlapping tcrs:  1
number of overlapping epitopes:  0
Model: "model_11"
__________________________________________________________________________________________________
 Layer (type)                   Output Shape         Param #     Connected to
==================================================================================================
 input_7 (InputLayer)           [(None, 2048)]       0           []

 input_8 (InputLayer)           [(None, 2048)]       0           []

 dense_12 (Dense)               (None, 2048)         4196352     ['input_7[0][0]']

 dense_13 (Dense)               (None, 2048)         4196352     ['input_8[0][0]']

 batch_normalization_9 (BatchNo  (None, 2048)        8192        ['dense_12[0][0]']
 rmalization)

 input_8 (InputLayer)           [(None, 2048)]       0           []

 dense_12 (Dense)               (None, 2048)         4196352     ['input_7[0][0]']

 dense_13 (Dense)               (None, 2048)         4196352     ['input_8[0][0]']

 batch_normalization_9 (BatchNo  (None, 2048)        8192        ['dense_12[0][0]']
 rmalization)


 dense_12 (Dense)               (None, 2048)         4196352     ['input_7[0][0]']

 dense_13 (Dense)               (None, 2048)         4196352     ['input_8[0][0]']

 batch_normalization_9 (BatchNo  (None, 2048)        8192        ['dense_12[0][0]']
 rmalization)


 dense_13 (Dense)               (None, 2048)         4196352     ['input_8[0][0]']

 batch_normalization_9 (BatchNo  (None, 2048)        8192        ['dense_12[0][0]']
 rmalization)

 batch_normalization_10 (BatchN  (None, 2048)        8192        ['dense_13[0][0]']

 batch_normalization_9 (BatchNo  (None, 2048)        8192        ['dense_12[0][0]']
 rmalization)

 batch_normalization_10 (BatchN  (None, 2048)        8192        ['dense_13[0][0]']
 rmalization)

 batch_normalization_10 (BatchN  (None, 2048)        8192        ['dense_13[0][0]']

 batch_normalization_10 (BatchN  (None, 2048)        8192        ['dense_13[0][0]']
 batch_normalization_10 (BatchN  (None, 2048)        8192        ['dense_13[0][0]']
 ormalization)
 ormalization)

 dropout_9 (Dropout)            (None, 2048)         0           ['batch_normalization_9[0][0]']

 dropout_10 (Dropout)           (None, 2048)         0           ['batch_normalization_10[0][0]']

 tf.nn.silu_9 (TFOpLambda)      (None, 2048)         0           ['dropout_9[0][0]']

 tf.nn.silu_10 (TFOpLambda)     (None, 2048)         0           ['dropout_10[0][0]']

 concatenate_3 (Concatenate)    (None, 4096)         0           ['tf.nn.silu_9[0][0]',
                                                                  'tf.nn.silu_10[0][0]']

 dense_14 (Dense)               (None, 1024)         4195328     ['concatenate_3[0][0]']

 batch_normalization_11 (BatchN  (None, 1024)        4096        ['dense_14[0][0]']
 ormalization)

 dropout_11 (Dropout)           (None, 1024)         0           ['batch_normalization_11[0][0]']

 tf.nn.silu_11 (TFOpLambda)     (None, 1024)         0           ['dropout_11[0][0]']

 dense_15 (Dense)               (None, 1)            1025        ['tf.nn.silu_11[0][0]']

==================================================================================================
Total params: 12,609,537
Trainable params: 12,599,297
Non-trainable params: 10,240
__________________________________________________________________________________________________
Epoch 52: early stopping
75/75 [==============================] - 0s 4ms/step
================Performance========================
…
